…
 [   0    0    0    0    0    0    6    0    2  513    9    0    0    1]
 [   0    0    0    0    0    0   47    0    0   84 2461    0    0    4]
 [   7    6    0    0  384    0    0    0    0    0    0    2    0    0]
 [   6    0    0    0   12   14    1   32   18    0    0    9  663    0]
 [   0    0    0    0    0    0    0    0    0    0    0    0    0 7996]]
accuracy 0.9426461813842482
total 25278 26816
array([0.83220339, 0.92840095, 0.974122  , 0.97333849, 0.45477387,
       0.924     , 0.99782477, 0.90178571, 0.1937799 , 0.96610169,
       0.94799692, 0.00501253, 0.8781457 , 1.        ])

Net(
  (conv1): Conv2d(1, 6, kernel_size=(5, 5), stride=(1, 1))
  (pool): MaxPool2d(kernel_size=2, stride=2, padding=0, dilation=1, ceil_mode=False)
  (conv2): Conv2d(6, 16, kernel_size=(5, 5), stride=(1, 1))
  (fc1): Linear(in_features=2704, out_features=120, bias=True)
  (fc2): Linear(in_features=120, out_features=84, bias=True)
  (fc3): Linear(in_features=84, out_features=14, bias=True)
)

model2 
train on 23 test 1n more filters
Net(
  (conv1): Conv2d(1, 12, kernel_size=(5, 5), stride=(1, 1))
  (pool): MaxPool2d(kernel_size=2, stride=2, padding=0, dilation=1, ceil_mode=False)
  (conv2): Conv2d(12, 24, kernel_size=(5, 5), stride=(1, 1))
  (fc1): Linear(in_features=4056, out_features=120, bias=True)
  (fc2): Linear(in_features=120, out_features=84, bias=True)
  (fc3): Linear(in_features=84, out_features=14, bias=True)
)

     0    1    2    3    4    5    6    7    8    9   10   11   12   13
[[ 435    0    0   88    0   65    0    2    0    0    0    0    0    0]
 [   0  399    0   19    0    1    0    0    0    0    0    0    0    0]
 [   0    3  464   54    0   20    0    0    0    0    0    0    0    0]
 [  52    3   36 2489    1    5    0    2    0    0    0    0    0    0]
…
 [   0    0    0    0    0    0    5    0    3  515    7    0    1    0]
 [   0    0    0    0    0    0  110    0    0   40 2437    1    5    3]
 [   0    3    0    0  392    0    0    0    2    0    0    2    0    0]
 [   1    0    0    0   20    8    2    4   26    0    1    0  693    0]
 [   0    0    0    0    0    0    0    0    0    0    0    0    0 7996]]
accuracy 0.9316452863961814
total 24983 26816
array([0.73728814, 0.9522673 , 0.85767098, 0.96174652, 0.93969849,
       0.848     , 0.96749245, 0.65714286, 0.40430622, 0.96986817,
       0.93875193, 0.00501253, 0.91788079, 1.        ])

model3
train on 23 test 1n batchnorm
device cpu
Net(
  (conv1): Conv2d(1, 12, kernel_size=(5, 5), stride=(1, 1))
  (pool): MaxPool2d(kernel_size=2, stride=2, padding=0, dilation=1, ceil_mode=False)
  (batch1): BatchNorm2d(12, eps=1e-05, momentum=0.1, affine=True, track_running_stats=True)
  (batch2): BatchNorm2d(24, eps=1e-05, momentum=0.1, affine=True, track_running_stats=True)
  (conv2): Conv2d(12, 24, kernel_size=(5, 5), stride=(1, 1))
  (fc1): Linear(in_features=4056, out_features=120, bias=True)
  (fc2): Linear(in_features=120, out_features=84, bias=True)
  (fc3): Linear(in_features=84, out_features=14, bias=True)
)

     0    1    2    3    4    5    6    7    8    9   10   11   12   13
[[ 413    0    0   77    1    0   90    3    0    0    0    1    2    3]
 [  37  223    9   10    4    0   76   45    0    0    7    8    0    0]
 [   1    0  485    2    3    0   27    0    0   15    4    4    0    0]
 [  28    0   27 2270    0    0  203    1    0    9    2   35    0   13]
…
 [   4    0    0    0    0    0   83    1    1   66 5310    0    8   11]
 [  13   12    1    0    6    5   30    0    4    4   21  663    2    2]
 [   1    0    0    3    2    7   34   16   18   16    5    2 1480    0]
 [ 179    6    0    4    1    4 3110   22    0   93   19    4   13  551]]
accuracy 0.8059606209260131
total 23987 29762

[0.98639456, 0.96575342, 0.93770492, 0.98182809, 0.82758621,
       0.8814628 , 0.68847727, 0.95869191, 0.9550173 , 0.95801938,
       0.96827133, 0.8689384 , 0.93434343, 0.13754368]

cnn6 with dropout
Net(
  (pool): MaxPool2d(kernel_size=2, stride=2, padding=0, dilation=1, ceil_mode=False)
  (conv1): Conv2d(1, 12, kernel_size=(5, 5), stride=(1, 1))
  (batch1): BatchNorm2d(12, eps=1e-05, momentum=0.1, affine=True, track_running_stats=True)
  (conv2): Conv2d(12, 24, kernel_size=(5, 5), stride=(1, 1))
  (batch2): BatchNorm2d(24, eps=1e-05, momentum=0.1, affine=True, track_running_stats=True)
  (drop1): Dropout(p=0.5, inplace=False)
  (fc1): Linear(in_features=4056, out_features=120, bias=True)
  (drop2): Dropout(p=0.4, inplace=False)
  (fc2): Linear(in_features=120, out_features=84, bias=True)
  (fc3): Linear(in_features=84, out_features=14, bias=True)
)
train both 1n and 23
     0    1    2    3    4    5    6    7    8    9   10   11   12   13
[[ 120    0    0    0    0    0    0    0    0    0    0    0    0    0]
 [   0   72    0    0    0    0    0    0    0    0    0    0    0    0]
 [   0    0  104    0    0    0    0    0    0    0    0    0    0    0]
 [   0    0    1  485    0    0    0    0    0    0    0    0    0    0]
…
 [   1    1    0    2    0    0  120    0    0   11 5289    1    1   58]
 [   0    1    0    0   41    1   95    1    2    0    5  532    0   85]
 [   0    0    0    1    0    9   17    4    7   16   33    1 1404   92]
 [ 376    6    1   11    2   11 1700   39    1  283   96   11  282 1187]]
accuracy 0.7687319400577918
total 22879 29762

[0.78486395, 0.85273973, 0.94644809, 0.93058332, 0.75464191,
       0.75409836, 0.57252827, 0.89070568, 0.87312572, 0.93972013,
       0.96444201, 0.69724771, 0.88636364, 0.29630554]

cnn9 more filters
device cpu
Net(
  (pool): MaxPool2d(kernel_size=2, stride=2, padding=0, dilation=1, ceil_mode=False)
  (conv1): Conv2d(1, 16, kernel_size=(5, 5), stride=(1, 1))
  (batch1): BatchNorm2d(16, eps=1e-05, momentum=0.1, affine=True, track_running_stats=True)
  (conv2): Conv2d(16, 32, kernel_size=(5, 5), stride=(1, 1))
  (batch2): BatchNorm2d(32, eps=1e-05, momentum=0.1, affine=True, track_running_stats=True)
  (drop1): Dropout(p=0.4, inplace=False)
  (fc1): Linear(in_features=5408, out_features=120, bias=True)
  (drop2): Dropout(p=0.3, inplace=False)
  (fc2): Linear(in_features=120, out_features=84, bias=True)
  (fc3): Linear(in_features=84, out_features=14, bias=True)
)

     0    1    2    3    4    5    6    7    8    9   10   11   12   13
[[ 119    0    0    0    0    0    0    1    0    0    0    0    0    0]
 [   0   79    0    0    0    0    0    0    0    0    0    0    0    0]
 [   0    1  111    0    0    0    0    0    0    0    0    0    0    0]
 [   0    0    0  497    0    0    0    0    0    0    0    0    0    0]
…
 [  17   96   16    2   79   35   60   20   58   19    0    1    0   15]
 [  31   50   20    1  120   66   68   46   54   17    9    3    3   43]
 [ 151  139   79   37  602  267  364  247  319  109  117   15   14  136]
 [  29   74    6    5  105   13   28   29   62   13    2    3    3   27]
 [  30   34   23   15  183   86  126   82   53   33   41    2    1   46]
 [  77    3   12 1332  258  533  791  488  204  946    0 1216  966 1170]]
accuracy 0.1076596062052506
total … cnn13 model13 same as model12 except no batchnorm
device cpu
Net(
  (pool): MaxPool2d(kernel_size=2, stride=2, padding=0, dilation=1, ceil_mode=False)
  (conv1): Conv2d(1, 16, kernel_size=(5, 5), stride=(1, 1))
  (conv2): Conv2d(16, 32, kernel_size=(5, 5), stride=(1, 1))
  (drop1): Dropout(p=0.4, inplace=False)
  (fc1): Linear(in_features=5408, out_features=120, bias=True)
  (drop2): Dropout(p=0.3, inplace=False)
  (fc2): Linear(in_features=120, out_features=84, bias=True)
  (fc3): Linear(in_features=84, out_features=14, bias=True)
)

trainloader 1n gm 23 0.8 0.5 gauss shuffle true
     0    1    2    3    4    5    6    7    8    9   10   11   12   13
[[ 2001     0     0    13     0     5     0     0     0     3     0     2 0     0]
 [    0  1366     0     1     0     0     0     0     1     0     0     0 0     0]
 [    1     1  1608     4     4     1     0     0     0     0     0     0 0     0]
…
 [   0    0    0    0    0    0    2    0    0   20 5458    0    0    4]
 [   0    0    0    0   30    0    0    0    0    0    1  732    0    0]
 [   0    0    0    0    0    1    0    0   12    3    3    2 1563    0]
 [   0    0    0    0    0    0    2    0    0    3   10    0    0 3991]]
accuracy 0.9916336267723943
total 29513 29762
[0.9872449 , 1.        , 0.99016393, 0.99763765, 0.95490716,
       0.98865069, 0.99639163, 0.98020654, 0.98385236, 0.98385361,
       0.99525894, 0.9593709 , 0.98674242, 0.99625562]


cbnn1
Net(
  (pool): MaxPool2d(kernel_size=2, stride=2, padding=0, dilation=1, ceil_mode=False)
  (conv1): Conv2d(1, 6, kernel_size=(5, 5), stride=(1, 1))
  (conv2): Conv2d(6, 16, kernel_size=(5, 5), stride=(1, 1))
  (drop1): Dropout(p=0.4, inplace=False)
  (fc1): Linear(in_features=2704, out_features=120, bias=True)
  (drop2): Dropout(p=0.3, inplace=False)
  (fc2): Linear(in_features=120, out_features=84, bias=True)
  (fc3): Linear(in_features=84, out_features=14, bias=True)
)

7799 [10,   779] loss: 0.036
    0    1    2    3    4    5    6    7    8    9   10   11   12   13
[[ 494    0    0    7    0    8    0    1    0    0    0    1    0    0]
 [   0  357    1    1    2    0    0    0    1    0    0    7    1    0]
 [   0    0  453    3    0    2    0    0    0    0    0    0    1    0]
 [   5    0    1 2398    0    1    0    0    0    1    1    5    1    0]
…
 [    0     0     0     0     0     0     4     0     0     7  9431    12 2     5]
 [    0     0     0     1     8     1     0     0     1     0     2  1365 2     0]
 [    0     0     0     2     2     1     0    12    22     9    37    11 2649     0]
 [    0     0     0     1     0     0     1     0     0     0     1     0 0 19702]]
accuracy 0.9957397664570768
total 77598 77930
[0.98238294, 0.99545455, 0.99548023, 0.99873644, 0.98509687,
       0.99317038, 0.99920532, 0.98647343, 0.98904639, 0.98718663,
       0.99682909, 0.98913043, 0.96502732, 0.99984775]

cbnn2
device cpu
Net(
  (pool): MaxPool2d(kernel_size=2, stride=2, padding=0, dilation=1, ceil_mode=False)
  (conv1): Conv2d(1, 12, kernel_size=(5, 5), stride=(1, 1))
  (conv2): Conv2d(12, 24, kernel_size=(5, 5), stride=(1, 1))
  (fc1): Linear(in_features=4056, out_features=120, bias=True)
  (fc2): Linear(in_features=120, out_features=84, bias=True)
  (fc3): Linear(in_features=84, out_features=14, bias=True)
)
7799 [10,   779] loss: 0.018
..\data\out\model_exp_cbnn2_7800.pth
Finished Training
Wall time: 33min 29s
  0    1    2    3    4    5    6    7    8    9   10   11   12   13
[[ 2145     3     0     6     0     1     0     0     0     0     0     1 1     0]
 [    1  1535     0     0     1     0     1     1     0     0     0     1 0     0]
 [    2     1  1764     3     0     0     0     0     0     0     0     0 0     0]
…
 [   0    0    0    0    0    0    2    2    2  459    8    0    3    0]
 [   0    0    0    1    0    0    2    0    0    2 2380    1    6    1]
 [   0    0    0    0   10    2    0    0    5    0    3  316    2    0]
 [   0    0    0    1    0    2    0    4    2    3    2    1  674    1]
 [   0    0    0    0    0    0    2    0    0    0    1    0    0 4986]]
accuracy 0.9906585228147616
total 19301 19483

cbnn1_last_bn
7799 [10,   779] loss: 0.003
..\data\out\model_exp_cbnn1_last_bn7800.pth
Finished Training
Wall time: 30min 38s

device cpu
Net(
  (pool): MaxPool2d(kernel_size=2, stride=2, padding=0, dilation=1, ceil_mode=False)
  (conv1): Conv2d(1, 6, kernel_size=(5, 5), stride=(1, 1))
  (batch1): BatchNorm2d(6, eps=1e-05, momentum=0.1, affine=True, track_running_stats=True)
  (conv2): Conv2d(6, 16, kernel_size=(5, 5), stride=(1, 1))
  (batch2): BatchNorm2d(16, eps=1e-05, momentum=0.1, affine=True, track_running_stats=True)
  (drop1): Dropout(p=0.5, inplace=False)
  (fc1): Linear(in_features=2704, out_features=120, bias=True)
  (drop2): Dropout(p=0.4, inplace=False)
  (fc2): Linear(in_features=120, out_features=84, bias=True)
  (fc3): Linear(in_features=84, out_features=14, bias=True)
)

7799 [10,   779] loss: 0.003
..\data\out\model_exp_cbnn1_last_bn7800.pth
Finished Training
Wall time: 30min 38s

     0    1    2    3    4    5    6    7    8    9   10   11   12   13
[[ 2108     1     0     3     0     2     0     0     0     0     0     0
      0     0]
 [    0  1543     0     0     1     0     0     0     0     0     0     0
      0     0]
…
